ml/model.tflite (tflite, 708920 bytes, 9 tensors)

sequential/conv2d/BiasAdd/ReadVariableOp f4 [32]
000000 34 6b 4e bd 33 37 54 bd 4e b9 8b 3d 29 a4 97 bd
       -0.050395206 -0.051810455 0.068224534 -0.07404358
000010 00 9d e1 b9 b4 e3 b7 3a a2 c7 1d 3c 9c 89 8c bb
       -0.00043032318 0.0014029653 0.009630116 -0.0042888653
000020 3c 4a 35 3b 2d e0 56 bd 0e 1c b4 3c 77 57 90 bb
       0.0027662655 -0.052459884 0.021986034 -0.004404958
000030 d1 81 9e 3d 78 22 d7 3c 46 3a 93 bd 71 01 d5 bd
       0.07739604 0.026261553 -0.07188849 -0.104006656
000040 62 7b 2e 3a 67 2d 29 3c 7f 3c 54 3b e6 3c 88 3d
       0.0006655959 0.010325766 0.0032384691 0.066522405
000050 4e 9d a5 3d 71 28 b8 3d d2 0e 79 bd 10 55 14 b9
       0.08086644 0.089920886 -0.06080515 -0.00014146068
000060 a1 a3 c7 3c 7d 68 45 bb b5 c2 70 bd 14 df 43 bd
       0.024370017 -0.0030122094 -0.058779437 -0.047820166
000070 e6 fa 23 bd 84 e1 53 bc 39 75 4c 3d 2e d8 0f bc
       -0.040034197 -0.012932185 0.04991648 -0.008779569

sequential/conv2d_1/BiasAdd/ReadVariableOp f4 [32]
000000 3a 12 3c bd 56 a6 d3 3a c0 5a f3 3b aa 7d 86 bd
       -0.04591582 0.0016147594 0.0074265897 -0.06566937
000010 65 1b 87 39 a5 60 37 bc 0b 50 a0 3c c7 ec 13 3d
       0.00025769617 -0.011192475 0.019569417 0.03611448
000020 16 7f cb bc 99 e5 44 bd 38 55 b1 bc ef 38 b5 3c
       -0.024840873 -0.048070524 -0.02164708 0.022121875
000030 e2 fe 90 bd b5 c9 4a 3c ad c2 f1 ba 6d 7f 4b bd
       -0.07079865 0.012377192 -0.0018444859 -0.04968207
000040 89 99 32 3d ca 9d 83 bc 41 17 1c bd e7 07 ef bc
       0.043603454 -0.01606645 -0.038108114 -0.029178573
000050 d9 93 09 3d da be 39 3c 80 26 52 3d f7 16 b1 bc
       0.033588264 0.011337006 0.051306248 -0.021617396
000060 7e 57 33 3d 0b 1c 12 3c 9c 87 a2 3c 24 fa 6c bd
       0.04378461 0.008917819 0.019840054 -0.05785574
000070 0d c2 be bb f4 6b 17 bd ab 78 81 bd 37 f6 63 bc
       -0.0058214725 -0.036968186 -0.06321844 -0.013913683

sequential/conv2d_2/BiasAdd/ReadVariableOp f4 [64]
000000 a1 9d 9f 3c e8 ba e4 3c 13 37 0d 3d ca 5c 0e bd
       0.019484343 0.027921155 0.03447635 -0.03475646
000010 73 01 3b 3c 90 e0 89 bb d0 d9 45 bc 09 20 48 3b
       0.01141392 -0.004207678 -0.012075856 0.0030536673
000020 29 98 2e ba f4 e9 82 3c 4d c5 e6 3b 8b e6 98 3c
       -0.0006660247 0.015980698 0.007042563 0.018664619
000030 20 49 81 3c 4b 5e 04 bd 01 63 4d bc 40 78 ff 3a
       0.015781939 -0.032316487 -0.012535811 0.0019490793
000040 39 40 a6 3c 85 0c d2 3c 52 3f c3 bc 98 6e 1b 3d
       0.020294296 0.025640735 -0.023833904 0.037947267
000050 e3 7e a0 bc a4 1b 0a 3c 54 58 61 bc e3 69 9e bc
       -0.019591754 0.008429442 -0.013753969 -0.0193376
000060 d5 8b cf 3c 1d fa 69 bc fd a5 51 3c a2 63 2b bc
       0.025335232 -0.014280823 0.012795922 -0.010460766
000070 95 a8 aa 3b 1d e4 79 bc 9c 87 f1 3c a1 a5 95 3c
       0.005208085 -0.01525214 0.029483609 0.018267455
000080 3a ca 45 bb 6b f7 ac 3c 9b b2 58 3b 02 1f 8c bb
       -0.003018035 0.021114072 0.0033065442 -0.0042761574
000090 4f af 35 bc 0f 0e 0a bc cf f3 cf bb 17 cc 41 3d
       -0.01108916 -0.008426203 -0.006346203 0.047313776
0000a0 01 29 d4 bc ea 20 10 3c 31 20 5a 3d 8d 91 68 bc
       -0.025898458 0.00879691 0.053253356 -0.014194858
0000b0 6a 65 b1 bc d2 9e 0b bc 48 bc a7 bc 53 3b 4c 3d
       -0.021654803 -0.008521752 -0.020475522 0.049861263
0000c0 95 97 2e 3c d9 61 e0 3c 95 b8 4b bd f4 14 30 bc
       0.010656257 0.027390407 -0.049736578 -0.010747183
0000d0 7e 37 53 3c 1b 0a cc bc 53 82 4b 3c f5 38 a9 bc
       0.012891648 -0.024907162 0.012421208 -0.020657042
0000e0 97 fd 17 3c fe c3 8e 3c 3f 79 ce 3b 07 95 6e bc
       0.009276769 0.01742744 0.0063010748 -0.014561898
0000f0 52 7c 11 39 0e e6 b6 3c f7 6b d5 3c 5d 5f 42 bc
       0.0001387459 0.022326495 0.026052458 -0.011863557

sequential/conv2d/Conv2D f4 [32, 3, 3, 3]
000000 32 7f 8f bd e6 2b 8e 3d 4a 44 2b be 2a df 16 3e
       -0.070066825 0.06941967 -0.16725269 0.14733568
000010 a6 3b ed 3d b1 39 d9 3d 0c ce d3 3b 6e 6c ac bd
       0.11583643 0.10606707 0.0064637717 -0.08419119
000020 70 c9 a1 3d b5 28 9b bd 6c 17 8d 3d 24 56 8b bc
       0.07899749 -0.075761236 0.06889233 -0.017008848
000030 8f e0 db 3c 99 57 d5 bc 5d 65 13 3d 67 8a a6 3c
       0.026840476 -0.026042746 0.03598534 0.020329667
000040 b1 40 9c 3c 69 6b 3f bd fb 40 da 3d 46 65 02 bd
       0.019073816 -0.046733294 0.10656925 -0.031834863
000050 2f 69 22 3e 68 fc 93 3d 11 90 58 bc 01 ed e3 bd
       0.15860437 0.07225877 -0.013217942 -0.11129189
000060 c6 e6 c6 3c 23 1f 81 3d 61 76 0c 3e e0 a6 56 be
       0.024279963 0.06304767 0.13717033 -0.20962095
000070 bc cd e7 3a 8d 41 66 be b9 04 40 3d bc de 6a 3d
       0.0017685215 -0.22485943 0.046879504 0.057341322
000080 ac 51 27 bc a7 b6 30 bd 95 bc 8f 3d 16 09 06 be
       -0.010212343 -0.04314294 0.07018391 -0.13089404
000090 13 c6 34 3e b9 51 f3 3d c7 3e 0a bc b3 52 bb bd
       0.17653684 0.11880822 -0.008437819 -0.09146633
0000a0 1f 80 4b bc 40 89 08 3e 9c af ba 3d bd 0f a8 3d
       -0.012420683 0.13333607 0.09115526 0.08206127
0000b0 78 8a ad bc 25 42 c3 3c 14 13 27 3e 84 89 50 3e
       -0.021184191 0.023835251 0.16315871 0.20364958
0000c0 50 99 0a 3e 13 97 39 bd 7f 6e ff bd 64 f3 eb 3d
       0.13535047 -0.04531009 -0.12472247 0.115210325
0000d0 83 96 13 bc 48 ed 3b 3e b1 ce 59 3e 16 0c 8c 3d
       -0.009008053 0.18352234 0.21270253 0.06838243
0000e0 9f f1 c1 bc e4 c8 07 3e 51 a0 d1 3d 89 4c 17 3e
       -0.023674784 0.13260227 0.10235656 0.1477529
0000f0 9f d0 e4 bd ba 71 9d 3d 1f bc d4 bc a7 8b 3a 3e
       -0.11172604 0.07687707 -0.02596861 0.18217336
000100 a2 88 d0 3d 30 e7 1d 3e 24 2d d2 bd 7b 6d b6 bc
       0.10182311 0.15420222 -0.10262516 -0.022269001
000110 6f 18 84 bd c7 58 8e bd f9 80 cc bd 47 4a 67 bd
       -0.06449973 -0.06950527 -0.09985537 -0.05646732
000120 ec 32 75 bb 47 b6 00 be 19 05 ee bd 23 8c 0a be
       -0.0037414385 -0.12569533 -0.11622066 -0.1353002
000130 4b af 52 be de 97 ef bc 2e b5 e7 bd 33 68 19 be
       -0.20574681 -0.02924722 -0.11313854 -0.14981155
000140 19 e5 57 be 23 03 e0 3d 64 53 dd 3d cf 9d 66 bd
       -0.21083488 0.10938098 0.10806921 -0.05630284
000150 80 e0 9f 3d b1 06 98 bc 89 9c 17 3b 42 ca 05 be
       0.07806492 -0.018557878 0.0023134074 -0.13065436
000160 56 a9 d3 bc 26 5f c0 3c f1 6d 6d 3b b3 2f 22 3e
       -0.025837582 0.02348287 0.003622886 0.15838508
000170 30 d4 bb bd e1 d2 6a 3e 30 53 68 3e 52 a2 95 3d
       -0.09171331 0.22932006 0.22687984 0.07306351
000180 e1 3d d8 3c 39 3a 27 bc d7 ad 9c bd 62 87 b3 3d
       0.026396694 -0.010206752 -0.07650345 0.087660566
000190 82 35 95 bd 05 f4 70 bd 18 65 ae 3c 04 0d 89 3d
       -0.072855964 -0.058826465 0.02128844 0.06691936
0001a0 a1 e4 bb 3d 74 7b 0b 3d bf 86 5f 3d 52 89 91 3d
       0.09174467 0.03405328 0.054571863 0.0710627
0001b0 a4 f6 5a be 71 8d 55 be 10 65 2c be 09 3a 78 3d
       -0.21383148 -0.20854737 -0.16835427 0.06060222
0001c0 47 a3 5d 3d 6d 67 16 3d 05 e4 36 be a5 46 4f be
       0.05411079 0.03671973 -0.1786042 -0.20241793
0001d0 a7 1a 3e be cc 9b 38 3e 5c 2e 92 3d 4d 25 4b 3e
       -0.18564855 0.18028182 0.071377486 0.19838448
0001e0 fc 52 14 3e b4 67 2f 3d b3 1e 81 3e b5 d4 9f bc
       0.14484781 0.04282351 0.25218734 -0.019510606
0001f0 68 2a b9 3d f1 50 ec 3d 5a 72 c5 bd 56 a7 f1 bd
       0.090412915 0.11538876 -0.096409515 -0.11799495
000200 4a 1e a3 3d 73 95 f7 bc e3 57 a8 bd c9 b3 72 3d
       0.079647616 -0.03022263 -0.08219888 0.059253488
000210 dd 5e 1b 3e 62 60 49 3c 42 9d 1d 3d 98 d1 0b 3e
       0.15172906 0.012291046 0.03848005 0.13654172
000220 17 85 39 3e 89 53 32 bd dc a0 36 be d1 6e 09 3d
       0.18117176 -0.043536697 -0.178348 0.03355295
000230 a2 05 25 be 18 3d 10 be 4f d9 f1 bc d7 12 8a 3d
       -0.1611543 -0.14085805 -0.029522566 0.06741875
000240 1f 65 35 3e c2 c8 4d 3e b9 04 36 3e 3c cf 43 be
       0.17714356 0.20096114 0.17775239 -0.19122022
000250 09 98 07 be aa 62 f6 bc 9c 49 47 be bb 0b 0a 3c
       -0.1324159 -0.030076344 -0.19461673 0.008425648
000260 c5 9f a5 bc 5d 27 9c 3c f4 22 d5 3b 32 33 01 3d
       -0.020217786 0.019061739 0.006504411 0.031542964
000270 8a 1b 34 3d 94 97 04 be df 88 87 bb 50 89 84 3d
       0.043971576 -0.12948447 -0.0041361894 0.06471503
000280 8d 88 ab bd 2d 53 e3 3d 1c 33 4a 3d 31 a6 f2 3d
       -0.08375654 0.11099849 0.049365148 0.11848105
000290 83 f1 ff 3d b4 79 30 3e a4 eb 5d 3e 1a 09 39 3d
       0.124972366 0.17233926 0.21671921 0.045174696
0002a0 10 e6 69 3d e7 66 bb bd 42 f5 59 3d 47 5c 39 3e
       0.05710417 -0.091504864 0.05321241 0.18101607
0002b0 96 1b 0f bd 2f c4 1c bd f5 73 ec bb 50 19 f1 bd
       -0.034938417 -0.038273033 -0.0072159716 -0.11772406
0002c0 cc 52 0c be ac de 96 3d 19 46 bc bd d7 6b 82 bc
       -0.1370346 0.0736669 -0.091930576 -0.015920563
0002d0 9d c7 8a bd 14 ec 8c bd 39 f4 2e 3d 89 c6 21 be
       -0.067763545 -0.06880966 0.042713378 -0.15798391
0002e0 78 bc 2c be 62 ec 13 be c0 7e ad bd 6c 8b c1 3d
       -0.1686877 -0.14445642 -0.08471441 0.09450421
0002f0 48 5c 50 bd 2c fc e8 bc 41 9b e4 3d b4 1e df 3b
       -0.050869256 -0.028440557 0.11162425 0.00680908
000300 68 83 56 3d 6c 36 35 3e 71 1a 06 3d a4 4f bb bd
       0.052371413 0.17696542 0.03274006 -0.091460496
000310 e6 6e ce 3d 9f 6f e9 3d 4b c8 cc 3c 01 e6 5d 3e
       0.10079746 0.11398243 0.02499785 0.21669771
000320 7c 02 4c 3e 58 b5 41 bc e5 9e f0 3d 73 6f f5 3d
       0.19922823 -0.011823021 0.11749057 0.11984148
000330 d9 b6 d5 bd 46 30 18 bd 5f 05 00 be d6 39 26 3c
       -0.10435266 -0.037155412 -0.12502049 0.010145625
000340 d7 3c 03 3e 6a d8 a5 3d 21 83 d1 bd 49 ea 05 3b
       0.12816177 0.08097918 -0.10230089 0.0020433834
000350 5f 40 86 bc ba f4 1a be 12 5a 88 be 4e 42 88 be
       -0.016388116 -0.15132418 -0.26631218 -0.26613086
000360 59 ac c0 bd 87 d9 6a be c1 53 03 be b2 53 91 bd
       -0.09407873 -0.22934543 -0.12824918 -0.07096042
000370 7d 1b a3 bd 56 10 36 3d 33 d6 a1 3b 87 ec 23 3b
       -0.07964227 0.044449173 0.0049388646 0.0025012807
000380 b1 3e dc bc b9 af 59 bd de 9a 1a be 96 65 e0 3d
       -0.026885362 -0.053146098 -0.1509814 0.10956876
000390 34 c0 2c be c9 a1 dd bd 83 12 c0 3d 9f 12 0a bd
       -0.16870195 -0.10821874 0.09378531 -0.033709165
0003a0 d3 8f 71 bd 26 a4 ca 3d 20 33 73 3e 02 8d e1 3d
       -0.058975052 0.0989459 0.23749971 0.11013223
0003b0 2e 11 2e 3e 58 46 31 3e b2 e5 44 bd 60 46 12 3e
       0.16998741 0.1731199 -0.048070617 0.14284658
0003c0 24 2b b8 bd 42 09 17 bc 5b ff c8 3d b4 5b 97 bd
       -0.089926034 -0.009218516 0.0981433 -0.07390538
0003d0 fa b3 6c 3d e9 a5 76 3d 3f d9 32 be db 46 54 bd
       0.057788827 0.060216818 -0.17465685 -0.051825386
0003e0 7d dd 25 be 45 cd 1c be 0e c8 81 bc 4c 6b 38 3c
       -0.16197772 -0.15312679 -0.015842464 0.01125605
0003f0 0b f4 b2 3d b3 7d e6 3d e7 79 bb 3c 74 8d d1 bd
       0.08737954 0.11254444 0.022885276 -0.10232058

sequential/conv2d_1/Conv2D f4 [32, 3, 3, 32]
000000 df c5 be 3b dd 69 46 be 92 bb ba 3d f9 aa de bc
       0.005821928 -0.19376321 0.091178074 -0.027181135
000010 aa 63 a3 3c 17 e0 c8 bd ba 92 10 3d f1 e1 57 3d
       0.019944984 -0.09808367 0.03529618 0.05270571
000020 8f df bc bd 64 05 26 be 73 8d d0 3d cc e0 13 be
       -0.09222328 -0.16212994 0.10183229 -0.14441222
000030 34 9d 3f bd 1f 23 f2 ba 33 08 40 be c2 e8 76 3c
       -0.04678078 -0.0018473602 -0.18753128 0.015070142
000040 75 6b 17 be 69 7e de 3b 1a 84 12 be af f6 23 3c
       -0.14787085 0.0067899716 -0.14308205 0.010007544
000050 7f f6 e5 bd 5d f5 ec 3c b5 3d 35 be 55 b8 d1 3d
       -0.11228656 0.028925592 -0.1769932 0.10240237
000060 b0 f6 1e be 12 f6 51 3e 9a c6 09 bd 2e 0d 69 bd
       -0.15523791 0.20504025 -0.033636667 -0.056897335
000070 a5 84 0e 3c 3c b5 46 bd f1 de 9d 3d 38 ac 59 3b
       0.008698617 -0.048512682 0.07708538 0.0033214223
000080 8a fa bc 3c 6c 82 63 be e5 7e 02 3e 5e a7 d2 bd
       0.023068685 -0.22217721 0.12743719 -0.10285829
000090 f8 c8 b4 bc 8d a5 89 3d 5e de 9d bd a3 1f ce bc
       -0.022068486 0.067210294 -0.07708429 -0.02516157
0000a0 5a 51 75 bd fd 37 c5 bd 6e fb ed 3d 66 de 55 bd
       -0.059892036 -0.096298195 0.11620222 -0.05221405
0000b0 d6 15 e2 3d 7a 7c 15 be 94 d7 b7 bd d6 9f 37 be
       0.11039321 -0.14598265 -0.08976665 -0.17932066
0000c0 03 0e 02 3e ee 1f 0b 3d e1 ac 8f 3d 5f 40 80 3d
       0.12700658 0.033965997 0.07015396 0.06262278
0000d0 79 d3 66 3e 55 11 d5 3d cf 75 82 3d aa 46 79 3d
       0.22541608 0.104036964 0.063701265 0.060858406
0000e0 ef 40 49 bd 9c 27 a8 bc de c3 20 3d 3d db 4e be
       -0.04913419 -0.0205267 0.039249294 -0.2020082
0000f0 38 b5 e5 bd 75 6f 2c be cd 42 d4 3d 25 2f a4 bd
       -0.11216205 -0.16839392 0.10364304 -0.080168046
000100 7a 8a 80 bd bd 20 ed 3d c8 71 cb bd 35 9c 9b bd
       -0.06276412 0.1157851 -0.099338114 -0.075981535
000110 3c f3 1a bd 86 1c 61 3d af 23 25 3e c6 6c b8 bd
       -0.037829623 0.054958843 0.16126893 -0.09005122
000120 78 84 03 3e d0 4c db 3d 9e 79 54 3e 14 52 11 3e
       0.12843502 0.1070801 0.20749518 0.14191467
000130 c8 e8 e7 3d 59 1c f1 3c d0 2c ff bd 5e 1f 1f bd
       0.113236964 0.029432463 -0.12459719 -0.038848273
000140 08 2c 75 3d 6d 22 1b bd ae 53 0f 3e 2f 2c 83 bd
       0.059856445 -0.037874628 0.13996765 -0.06404912
000150 a3 94 5c 3e 56 bc 19 3e 76 5a 10 be 83 a9 17 3e
       0.21541075 0.1501325 -0.14097008 0.14810757
000160 1d 15 c5 3d be c1 12 3c e1 88 9a bd 67 fa 5a 3c
       0.09623168 0.008957325 -0.07545639 0.013365365
000170 73 ef df 3d 1b cd 1a be 15 e2 f8 3d d3 3e f7 bc
       0.10934343 -0.15117304 0.12152497 -0.030181324
000180 1c 09 0d be a2 3e 3b bd 1c 80 79 3d 0d 22 37 3d
       -0.13773006 -0.04571403 0.06091319 0.044710208
000190 6c 9a 0e 3d 32 ff 21 be d6 5c ad 3c 99 33 49 be
       0.034815237 -0.15820006 0.021162432 -0.19648589
0001a0 87 8a 27 3e 6e 16 20 bd 78 50 76 3e 91 73 68 bd
       0.16361438 -0.03908389 0.24054134 -0.056750838
0001b0 07 68 76 bd ad 4c d3 3d e2 7f 25 be ef ec 4a 3d
       -0.060157802 0.10317359 -0.16162065 0.049542364
0001c0 3e af 9b bd 77 d2 4e 3d 3b c1 e0 3d ba a0 75 3e
       -0.07601784 0.050493684 0.10974356 0.23987094
0001d0 69 b1 49 3e 31 1f a5 ba 94 d3 eb bd f4 bb 9d 3d
       0.19696583 -0.0012597797 -0.11514965 0.07701865
0001e0 14 0c 67 bd ca 49 b7 bc 1b 15 80 bd e2 43 d6 bd
       -0.056408003 -0.022374053 -0.062540255 -0.10462166
0001f0 2a 60 d2 bd fe 29 f2 bd ab 93 95 bd b6 bf 60 3c
       -0.10272248 -0.118244156 -0.07303556 0.013717582
000200 b6 40 a4 bc db 78 51 3d bc b8 12 be 7f 29 53 bd
       -0.020050388 0.051140647 -0.14328283 -0.051553246
000210 55 ba 3d 3e 69 12 14 bd 7f 7c 1f 3e cc 6a 10 3e
       0.18528111 -0.03615037 0.15574835 0.1410324
000220 5e 66 95 3c 79 9f 9c bd 73 e1 32 3e 8a c7 88 bd
       0.018237289 -0.076476045 0.17468815 -0.06678684
000230 a0 2a d3 bd 7f 6d be 3b 6c b5 e3 bc ce 8f c9 bc
       -0.103108644 0.005811393 -0.02779647 -0.024604704
000240 1d 5f 68 3e a5 f4 db 3d 03 b1 86 bd d9 9a 9e 3e
       0.22692533 0.107400216 -0.06576731 0.30977514
000250 ac db ec 3d 85 85 ab bd b0 60 b8 3d 81 4d 80 3d
       0.115653366 -0.08375076 0.09002817 0.06264783
000260 0f d5 6c 3e 59 e3 14 3e 9b 38 99 bd 1a 6a 76 3d
       0.2312815 0.14539851 -0.074815 0.06015978
000270 df fe 11 3e eb 0e 9d 3d ac 95 b7 bd 8f 27 d9 bb
       0.14257382 0.07668861 -0.089640945 -0.00662703
000280 92 b8 2a 3e 97 2e 44 3e e5 81 b1 bc ba 65 4e 3d
       0.1667197 0.19158398 -0.021668384 0.050389983
000290 ab db 4b bc 94 ff 9d bd c6 c4 0b 3e 6e 9b 1e 3e
       -0.01244251 -0.07714763 0.13649282 0.15488979
0002a0 db 88 0f 3e 0a e5 a8 bc ad a4 17 3e a7 87 dd 3d
       0.1401705 -0.020617027 0.14808913 0.10816889
0002b0 e0 78 07 be e5 18 cf 3d 63 f9 b9 bc ea d4 f8 3d
       -0.13229704 0.1011217 -0.022701925 0.12149985
0002c0 49 8f 37 3e b3 ff 04 3e 40 4c 04 be 1b c3 3b 3e
       0.17925753 0.12988167 -0.12919712 0.18336146
0002d0 8e 93 9b bc 42 66 b6 bd 37 d8 3a 3d 45 dc 92 bd
       -0.018991258 -0.08906223 0.045616355 -0.07170919
0002e0 9c c0 ff 3d 01 d5 87 3d 44 39 cb 3b f1 a8 50 bc
       0.12487909 0.06632424 0.006201895 -0.012735591
0002f0 9a 2d 12 3e a2 ab 95 3c 3a 6f 13 bd b7 73 53 bd
       0.14275208 0.018270317 -0.035994746 -0.051624026
000300 f2 d7 de bc ac 1d 9c 3d 04 b3 e4 bd 3e 5a 34 be
       -0.02720258 0.07622847 -0.11166957 -0.1761255
000310 8f f5 d2 3d 8c 66 96 3c 25 a5 8a 3d ca 59 7a bd
       0.10300743 0.018359445 0.0676978 -0.061120786
000320 34 0b 02 3e 0e 72 60 bd 34 a7 2c 3e 64 bb 3e 3e
       0.12699586 -0.05479627 0.16860658 0.18626171
000330 9f 86 00 be 4b 24 fc bc a4 ba b9 3d b2 f8 81 3d
       -0.12551354 -0.030779025 0.09068802 0.06346263
000340 d8 00 f4 3d 27 20 76 3c 1b 2f cf 3d d7 09 44 3e
       0.119142234 0.015022314 0.101164065 0.19144379
000350 23 04 0f 3e fd b1 2e bb 5f bd c3 3c e4 40 0b 3e
       0.13966422 -0.0026656382 0.02389401 0.13598973
000360 02 f4 53 3e 6a 76 de bd 39 f5 46 be 43 90 ca 3d
       0.2069855 -0.108624294 -0.19429483 0.09890797
000370 5e 26 9c bd 41 d8 e8 3d 09 92 97 bd dd 6b 07 be
       -0.076245055 0.11369372 -0.07400901 -0.1322474
000380 90 58 22 3e 4a ae 5e 3e a3 21 95 3b 9d f5 55 bc
       0.15854096 0.21746174 0.004551129 -0.013059047
000390 bd 43 87 3d 14 e5 12 3e 34 7a 49 3d 46 f5 89 bd
       0.06604717 0.14345199 0.049188808 -0.06736235
0003a0 15 85 b9 3c 06 30 c6 bc 4c 6a 05 3d 80 39 04 3e
       0.022646466 -0.024192821 0.032572076 0.1291256
0003b0 f9 04 6d be 3e 12 2d 3e 02 6e f9 3b 6e 19 e1 3d
       -0.23146428 0.1690149 0.007611991 0.109911785
0003c0 69 f3 5a 3c 74 86 44 bd d9 b2 8a bb e1 6e 52 3c
       0.013363698 -0.047979787 -0.004232746 0.012843818
0003d0 28 ac 81 3d ca 0b 14 be 93 87 bd 3d 7a 8a 13 bd
       0.06331664 -0.14457622 0.09254374 -0.036020733
0003e0 c1 f7 c5 bd b8 98 d4 3b 06 42 cf 3d ba f8 fa 3d
       -0.09666396 0.006487932 0.10120015 0.12254472
0003f0 90 57 38 3d a3 80 aa ba e6 ad 1a 3e 87 95 1c 3e
       0.04500538 -0.0013008307 0.151054 0.15291415

sequential/conv2d_2/Conv2D f4 [64, 3, 3, 32]
000000 ea 80 93 3d dd 76 ae bd e0 89 ee 3d 17 36 72 bd
       0.07202323 -0.08518765 0.11647391 -0.059133615
000010 bc 81 03 be e7 2b 92 bd 25 2d d2 3d 5b b9 f6 bd
       -0.12842458 -0.0713728 0.10262517 -0.120470725
000020 7b 95 5b 3c 66 2b 80 3d f3 73 20 be cf eb 3e bd
       0.013402338 0.062582776 -0.15669231 -0.046611603
000030 8d b5 8e bd dc 16 a6 bd 94 95 0d be ec ac ee bb
       -0.06968222 -0.08109829 -0.13826591 -0.0072837975
000040 ea 69 d3 bd 22 bf e6 3d 3f 70 8a bd e2 a0 b9 3d
       -0.10322936 0.112669244 -0.067596905 0.09063889
000050 1a 23 5e bd 0d ee 0e 3d cc 56 b9 bd 92 22 c6 3d
       -0.054232694 0.03489499 -0.09049758 0.096745625
000060 a5 ce 50 3d 2f be a2 3b 3f 3c 9d bb 4c 02 66 3d
       0.05097832 0.0049665193 -0.0047984417 0.056154534
000070 e4 6e ed 3d fa b8 fa 3b 83 c1 0b be b6 02 04 3e
       0.11593416 0.0076514455 -0.13648038 0.12891659
000080 e3 24 9c 3d d5 6e 0b 3e 56 7d cb bd 36 c4 0f be
       0.07624223 0.13616498 -0.09936015 -0.14039692
000090 dd 2f 9e 3d ba ae 4a 3d a9 e2 26 bd 1c 57 68 bd
       0.07723973 0.04948304 -0.040743504 -0.0567237
0000a0 5a dc ad bd f3 54 2a 3e 14 c9 4c bc bd 19 2d 3e
       -0.08489294 0.16633968 -0.012499113 0.1690435
0000b0 60 e2 a6 bd 59 8f f2 3d 5a d8 44 bd b6 0c 47 bb
       -0.08148646 0.11843748 -0.04805789 -0.0030372567
0000c0 a8 c6 aa bd 05 34 b6 bd e3 ab 20 bd 98 20 52 3d
       -0.08338672 -0.08896641 -0.039226424 0.051300615
0000d0 ce c8 52 bd ba 51 d2 bd 38 84 1e 3e fc 9d c3 3d
       -0.051461034 -0.10269494 0.15480125 0.095516175
0000e0 8a b0 ef 3d ae 0a ff bd 58 4c 99 bb 7b 82 27 be
       0.11703594 -0.12453209 -0.0046782903 -0.16358368
0000f0 19 d9 03 3d f2 8e 6a bd 88 d5 47 be 65 11 07 be
       0.032189462 -0.05726523 -0.1951505 -0.13190229
000100 1b 4f 0c be 38 a0 e7 3d 17 0e e9 bd fe 51 b5 3d
       -0.13702051 0.11309856 -0.113796405 0.088535294
000110 bd 6d fe 3c bc fe 9c be 54 1d 05 be de 53 24 3e
       0.031058187 -0.30663097 -0.12999469 0.16047618
000120 a9 b8 09 be bd 8d c2 bc 10 66 7a 3d 90 7f fa 3c
       -0.13449349 -0.023749227 0.06113249 0.030578405
000130 1a b7 00 be 49 20 96 3d a0 2c e4 bc 0b d4 92 3d
       -0.12569848 0.07330377 -0.02785331 0.0716935
000140 d1 45 05 3e 66 96 36 bd e7 da 54 bc 34 25 42 be
       0.13014914 -0.044577025 -0.0129916435 -0.18959504
000150 8b 05 17 3c 87 6a ef 3d 2d 6d 93 bd da 35 09 be
       0.00921763 0.1169024 -0.07198558 -0.13399449
000160 7a 31 4b 3d 69 15 d9 3d 3d ee 96 3c a5 ea 6b 3c
       0.04960773 0.10599787 0.018424148 0.014399205
000170 8e 8f 55 bd 3b 94 e1 bc 95 f0 ab 3d 64 8c 2c 3d
       -0.052138858 -0.027536502 0.08395497 0.042126074
000180 89 c5 01 3e 3d a4 48 be 03 67 94 3d a5 c8 de 3d
       0.1267301 -0.19593902 0.072462104 0.10878114
000190 e1 02 03 3e 26 89 c8 bd 9d ef 42 3c d8 7d 3e be
       0.12794067 -0.09791784 0.011897949 -0.18602693
0001a0 11 51 8a 3d 41 9a 20 be 78 97 0e 3e cf 7d 4a be
       0.067537434 -0.15683843 0.13924968 -0.19774555
0001b0 af 66 4e bc fa 80 b5 bd 97 f7 ad 3d 4b c3 f0 bd
       -0.012597724 -0.08862491 0.0849449 -0.11755999
0001c0 3f 69 81 bd b9 5e bf bd cb 3b f8 3a 5f 5c 24 3d
       -0.06318902 -0.09344239 0.0018938718 0.040127154
0001d0 1d 0c da bc 4e f4 e5 bd d7 0a 0d bd bd 59 0b bd
       -0.026617104 -0.11228238 -0.034434166 -0.034021128
0001e0 c6 22 f1 bc 1b 90 26 3d e5 4a 96 bc 3f 9e 14 be
       -0.029435527 0.040664773 -0.01834626 -0.14513491
0001f0 35 87 94 3c bd 49 e9 bc 67 49 3a 3d 2f 9f e5 3d
       0.018130878 -0.028477544 0.04548016 0.112120025
000200 f1 f5 57 3d b1 88 a5 3d 22 ed b6 bd a2 e7 6c bc
       0.052724782 0.080827124 -0.08931948 -0.014459522
000210 ff 5f 78 3d 59 41 15 bc 6d b1 17 3e 57 1b 5b bc
       0.060638424 -0.009109818 0.14813776 -0.013373218
000220 a0 92 32 3e 79 64 49 3d d6 f6 4e 3d aa c1 59 3d
       0.17438745 0.049168084 0.05052837 0.053163208
000230 76 e1 b4 bc 5e d7 7f bd 7a 41 c5 3d fd ee f8 bd
       -0.022080164 -0.06246125 0.09631629 -0.121549584
000240 3c 56 16 3e 2d 78 be bd 1a e8 f0 bd 02 5c c7 3d
       0.14681333 -0.093002655 -0.1176302 0.09734346
000250 21 f2 eb 3d e2 96 b1 bd 7d 84 aa 3d 80 49 14 3e
       0.11520792 -0.08671357 0.083260514 0.14481163
000260 55 3f c7 3d fe 97 7d bc fc 2e 2c be 3c f5 97 3d
       0.097288765 -0.015478132 -0.16814798 0.074198216
000270 02 58 bf bd ef c4 c7 3d 66 2a ae bd ca 99 e8 bd
       -0.09342958 0.09754359 -0.085041806 -0.11357458
000280 24 33 3a bc 10 48 21 3e e6 8a 12 bb 08 5c 43 3d
       -0.011364732 0.15750146 -0.0022360622 0.04769519
000290 01 df 99 ba e9 54 e0 bd 8e 05 3e 3d d2 5d 3b 3d
       -0.0011739434 -0.10953695 0.046392016 0.04574377
0002a0 33 63 e3 3d e7 97 04 bc 1f ec b1 bd ef b6 bd 3d
       0.11102905 -0.008092857 -0.08687615 0.092634074
0002b0 0e 11 b5 bd 9c 55 bc bd 21 af bc 3c 5a ba 9f bd
       -0.088411435 -0.09196016 0.023032727 -0.077992156
0002c0 b8 17 b9 bc 06 0c 66 bc 2d db 90 bb dd 79 05 3e
       -0.022594318 -0.014040953 -0.004420659 0.13034768
0002d0 41 34 94 bd 60 d5 d4 bd b2 ee 74 3d 2f 16 ce 3d
       -0.07236529 -0.103922606 0.05979795 0.10062825
0002e0 97 87 c9 bd d8 fa b7 bc dd 02 91 3d 58 75 3c bb
       -0.09840315 -0.022458479 0.07080624 -0.0028756466
0002f0 d6 73 bd 3d d5 cb 8b bd b5 4a 8d 3d 0e 69 c2 3c
       0.092506096 -0.06825987 0.06899015 0.023731735
000300 cd 8b 85 3c f8 1b b5 3c 26 68 37 3c d0 fe 31 bd
       0.016302014 0.022108063 0.0111942645 -0.0434559
000310 33 1b cd 3d f7 16 d1 bc 7d 3b 02 be 57 d3 ed 3c
       0.100149535 -0.025523646 -0.12718005 0.029031439
000320 13 54 8c bd fb 01 2b bd 14 e7 09 3d 48 76 a1 bd
       -0.068519734 -0.041749936 0.03366764 -0.078838885
000330 13 34 23 be d7 bc 19 3d 41 e1 bb 3d c3 0b 08 be
       -0.15937833 0.037533607 0.09173823 -0.13285737
000340 85 da c1 3d b1 9b ec bd 49 62 56 bd 8a d8 cc 3a
       0.094655074 -0.11553133 -0.052339826 0.0015628499
000350 9d 38 e1 bd c6 81 60 bc e6 95 08 3d 62 60 a4 3d
       -0.10997126 -0.013702815 0.03334608 0.08026196
000360 be 2c d1 bc 6c db c5 bd ed fc f1 bc 6b 88 53 bd
       -0.02553403 -0.09660992 -0.02953955 -0.05164377
000370 f6 06 88 bc 99 b8 14 3d 94 24 32 3d 80 0e 83 be
       -0.016604882 0.03630886 0.043491915 -0.25597
000380 f6 a1 25 be 2b 68 6f bd 08 45 b7 bd 6d 5c e4 3c
       -0.16175064 -0.05844895 -0.089487135 0.027876103
000390 ef c8 d3 3d 86 98 a6 3d 7e bb 84 3d af 43 68 3e
       0.103410594 0.0813456 0.06481074 0.22682069
0003a0 d9 38 76 bd 11 4e 44 3e a7 dc d6 3d db b3 87 bd
       -0.060112808 0.19170405 0.10491305 -0.066261016
0003b0 dc 2f 2e 3e 32 56 e7 bd 13 19 cc bd d5 13 d6 bd
       0.17010444 -0.11295737 -0.0996572 -0.104530014
0003c0 9e fb 68 bb de e8 c3 bd ac d4 ff bc d7 cb 94 3d
       -0.0035550366 -0.095659 -0.03122934 0.07265442
0003d0 11 cc 0a 3e f9 9f aa 3d 90 29 0f 3e 94 1e 06 be
       0.13554408 0.083312936 0.13980699 -0.13097602
0003e0 67 50 85 be 2a 89 1c 3d a9 49 dd 3d 20 09 b9 bb
       -0.26037905 0.038216747 0.10805065 -0.0056468397
0003f0 12 b7 21 be 18 54 a5 3d ba 3f 88 3c 5d b0 c3 3d
       -0.15792492 0.0807268 0.01663195 0.09555123

sequential/dense/BiasAdd/ReadVariableOp f4 [64]
000000 95 09 74 bb a1 a1 0c 3b 00 3d b9 bb ba b0 09 bb
       -0.0037237157 0.0021458643 -0.0056530237 -0.0021009878
000010 6e 57 af bc 98 9f bf bc 0f ab 9c bc 69 83 2b bc
       -0.021403994 -0.02339153 -0.019124536 -0.010468342
000020 7a 03 63 3c fd 34 1d 3c 3a c8 98 ba d5 7c 80 bc
       0.013855809 0.009595153 -0.0011656352 -0.015684525
000030 31 72 1d 3c 33 b7 e8 bb d5 4e 4b bc 9a 39 ab bb
       0.009609745 -0.007101917 -0.012408932 -0.0052253725
000040 e8 c9 26 3b 45 11 22 bc 3d 0e e7 bc 4c 34 a7 bb
       0.0025449935 -0.009891813 -0.028205032 -0.00510267
000050 de 29 31 3b 70 78 53 bc 95 b6 09 3b c2 15 c0 bc
       0.0027033011 -0.0129071325 0.0021013368 -0.023447875
000060 4a 23 3b bc b5 45 c6 3b 0d 8e bb bc b9 5f a9 3b
       -0.011421988 0.00605079 -0.022894884 0.0051688817
000070 26 20 4a 3c 43 86 c1 bb 94 f0 58 3c 5e 95 ac bb
       0.012336766 -0.005905898 0.013240952 -0.0052668294
000080 69 7f 70 bb be 8e 8b bc 2c d1 23 bb 6d 0f 60 3c
       -0.0036697036 -0.017035838 -0.0024996502 0.013675553
000090 74 4d c2 bc 41 6a 5a 3c 52 63 33 bc b4 dc c1 3a
       -0.023718573 0.013330997 -0.010948973 0.0014790506
0000a0 4b 82 01 bc ca 3c fc bc 1b 34 24 bc b6 89 42 3c
       -0.007904599 -0.030790705 -0.010022189 0.011873653
0000b0 60 dd 28 3c b1 aa 6d bc c4 e0 8d bc 69 c2 b4 bb
       0.010306686 -0.014506028 -0.01731909 -0.0055163396
0000c0 31 34 ce bb b9 07 97 bb b6 7b 1c 3a 9b 42 1e 3c
       -0.006292843 -0.004609075 0.0005969362 0.009659435
0000d0 60 ba 32 bc 9f bd a5 bb cf 96 c6 3b c7 ae be bc
       -0.010908693 -0.005058005 0.0060604583 -0.0232767
0000e0 af 5f 44 bc 21 7e ca bb cb da 60 3c 10 07 25 bc
       -0.011985703 -0.0061795865 0.013724039 -0.010072485
0000f0 1e 53 aa bb a2 4d 74 bc fe a2 3f bb 31 1a f5 bb
       -0.0051978966 -0.014911087 -0.0029241438 -0.007479929

sequential/dense/MatMul f4 [64, 2304]
000000 46 a5 8c bd 84 f0 aa bc ec 45 21 bd 28 8e e6 bd
       -0.06867461 -0.02086664 -0.039373323 -0.11257583
000010 9a 7e 90 3c e5 c4 d5 bc af 2d a3 bd 28 e4 6f 3c
       0.017638493 -0.026094863 -0.07967698 0.014641799
000020 c7 28 9d 3c b9 72 b3 3c 9f 2a 0f bc be c3 0b 3d
       0.019184483 0.02190529 -0.008738189 0.03412222
000030 8b 85 52 3c 75 02 28 bd a3 0a 23 3d ec 00 b7 bd
       0.012849222 -0.04101797 0.039805066 -0.08935723
000040 14 48 b7 bb ef 9a 91 bc 9e 26 b3 bc 5e 3a da 3d
       -0.005593309 -0.017774073 -0.021869 0.10655664
000050 75 65 ec ba e6 09 c9 bd 5f 7c 38 3d b4 84 0b 3d
       -0.0018035608 -0.09816341 0.045040485 0.034062102
000060 1d bb f3 3c ab 12 3c 3d a9 03 44 3d cd 81 11 be
       0.029752309 0.04591624 0.047855053 -0.14209671
000070 09 e8 2e bd a2 01 3e bd 2d 72 24 be 1f d7 ff ba
       -0.042701755 -0.046388276 -0.1605918 -0.0019519067
000080 59 94 25 bd 1f 34 9f b9 83 0b 65 bd d0 87 cb 3c
       -0.04042468 -0.00030365677 -0.05591918 0.024845034
000090 70 00 d0 3c dc 30 ff bc 36 68 a8 bb 81 75 a9 3d
       0.025390834 -0.031151228 -0.005139376 0.08274365
0000a0 f7 5e 1a bd 4b 14 60 3c 9f 9f e9 3d a1 3b 93 bc
       -0.03768822 0.013676713 0.114073984 -0.01797277
0000b0 0d 5d 16 bc 5b ef 03 bd 1b f3 c7 bd 1a 49 26 3d
       -0.0091774585 -0.03221069 -0.097631656 0.04059706
0000c0 8d 32 94 bc 32 b9 13 bc 61 52 dd 3c 96 de 11 bd
       -0.01809051 -0.009016322 0.02701682 -0.035612665
0000d0 0b 96 64 3d 71 60 af bd 75 99 02 ba 80 b6 3a 3c
       0.055807155 -0.085633166 -0.00049819733 0.01139605
0000e0 6f 28 09 bd 82 e5 75 bd 65 98 30 3c 30 86 2b bd
       -0.033485826 -0.06003333 0.010778521 -0.041876018
0000f0 52 74 20 3d 84 b7 16 bc 97 29 01 3d ad e7 90 3c
       0.03917343 -0.009199027 0.031533804 0.017688597
000100 b9 be 67 3d 8c 2b c1 3c 47 a6 b9 bc f1 ec b8 3d
       0.05657837 0.023580335 -0.022662295 0.09029568
000110 07 63 ed 3c 10 dc 0b 3b 4a 81 84 bd 97 e0 9f bd
       0.028977884 0.0021340884 -0.064699724 -0.07806509
000120 5e fa 10 bd f7 98 f3 bc 5b c1 dd 3b 19 a5 f6 bc
       -0.03539502 -0.029736025 0.0067674345 -0.030108022
000130 6a f1 e4 3c 6f 1f b5 bb 23 15 a0 3d 49 13 cd 3d
       0.027947146 -0.005527429 0.078165315 0.10013444
000140 5e ae 69 3d ea d8 31 bd f2 ed b0 3d 79 d5 60 3d
       0.057051055 -0.043419756 0.086391345 0.054891083
000150 9f 6f 1d bc 56 c5 84 bd 45 68 83 bd c9 5e 91 bc
       -0.009609132 -0.06482951 -0.06416372 -0.017745392
000160 bc 35 1c 3d 0e 3b f8 3c 7f 9b 40 bd a1 7c 99 3d
       0.038137183 0.030301597 -0.047023293 0.07494474
000170 b0 4f fa bc 00 ac 53 bc e1 53 a8 bc 34 fd 24 3d
       -0.030555576 -0.012919426 -0.02054781 0.040280536
000180 6c 18 c1 3d 77 46 72 3d e4 74 01 bc 54 20 06 3b
       0.09428486 0.05914923 -0.007901404 0.0020466046
000190 fa 48 e0 3c de 69 35 bd 99 7f 5e bc 15 76 56 3d
       0.027378548 -0.044290416 -0.013580226 0.052358706
0001a0 f1 af aa 3d a7 f8 a6 3d d5 c9 2d 3d 6e 25 61 3b
       0.083343394 0.081528954 0.04242881 0.0034354585
0001b0 60 10 c5 3d 7b f7 eb 3c 46 4b 59 bb 30 47 c2 bd
       0.09622264 0.028804531 -0.0033156439 -0.09486234
0001c0 f9 2a 81 3d 60 ec 58 bd 08 c0 74 b9 57 bc df bb
       0.063070245 -0.0529598 -0.0002334119 -0.006827872
0001d0 45 d7 00 3d b9 71 bf 3b c7 13 87 bb c4 56 95 3c
       0.031455297 0.005842414 -0.0041222307 0.01822985
0001e0 12 58 5a 3c bf 8a 8a bd 92 ba 8d bd 5a 7c 5e bd
       0.013326662 -0.06764745 -0.06920351 -0.05431781
0001f0 91 72 86 bd cb 34 70 bd b3 f0 01 3d 6f 27 7b bd
       -0.065648206 -0.058644097 0.03172369 -0.061316904
000200 55 73 86 3d ae 79 9c 3d 62 0d 5a bd e9 62 b6 bc
       0.065649666 0.07640396 -0.05323542 -0.02226396
000210 89 f2 94 3d 02 44 40 3d 73 de 2d bd b3 d3 bb 3d
       0.072728224 0.046939857 -0.042448472 0.09171238
000220 b9 25 ab 3c 8d c4 8c 3d 4c 10 38 bd fd df 45 3d
       0.020892011 0.068734266 -0.044937417 0.048309315
000230 e3 5e c9 bc 96 dd b2 bc 8c 17 13 3b 0c 6c 9f bd
       -0.024581378 -0.021834176 0.0022444455 -0.0778428
000240 17 73 8f 3d 7d 8d 65 3d e4 90 06 be 55 4d ac 3d
       0.070043735 0.056043137 -0.13141209 0.084131874
000250 89 d6 49 3d 88 cb 6c bc d0 78 7b bd b0 25 2b bd
       0.049276862 -0.0144528225 -0.061394513 -0.04178399
000260 3b a9 9c bd d5 55 58 bd 14 74 37 3d a6 44 a8 b9
       -0.07649466 -0.05281623 0.044788435 -0.00032094604
000270 13 13 f7 bc 45 99 d3 3c e0 ef fb 3b 75 7f 02 be
       -0.030160462 0.02582992 0.0076885074 -0.12743933
000280 d4 fa 74 bd e5 44 88 3b ee b4 a2 3d ae eb 10 3e
       -0.05980952 0.0041586035 0.07944666 0.14152405
000290 a0 67 03 3c 07 c6 0e bd b8 40 fc 3d 4c 6d 9c bd
       0.008020312 -0.034856822 0.123170316 -0.07638034
0002a0 cd 0c 82 3b 97 01 fd 3d da df 83 bd b2 d1 89 bd
       0.003968811 0.12353819 -0.06439181 -0.06729449
0002b0 33 12 cd bd 40 37 e7 3d 90 2f 19 3d 71 51 3d bd
       -0.10013237 0.11289835 0.037398875 -0.046220247
0002c0 eb 9e c5 3c b8 7e 2a bd d5 3b 25 bd af 1f f8 3a
       0.02412363 -0.041624755 -0.040340263 0.0018930341
0002d0 ca 71 4f bd 3e 14 b0 3c 89 08 2a bd 73 f2 a3 3b
       -0.050645627 0.021494027 -0.041512046 0.0050032674
0002e0 de f5 e0 bb 3d 1d fb bb 4e 9a 2e bd 60 b7 0f 3b
       -0.006865247 -0.0076633976 -0.042627625 0.0021929368
0002f0 5d 24 18 bc e3 d3 a7 3d 60 d8 b5 3c d7 8e b0 3b
       -0.009286013 0.08194711 0.022197902 0.0053881216
000300 7b 26 30 3d 94 1b 42 bd 70 e6 ba bd 9b de 07 3d
       0.043005448 -0.04738958 -0.09125984 0.033171277
000310 82 2e df 3d 2c 93 ee 3b 0e ad e1 bd 9a bf 91 3d
       0.108975425 0.007280728 -0.11019336 0.07116623
000320 6e 87 bb 3b 37 a1 9a 3d a0 ad 27 3d 5c 8f 37 bb
       0.0057229316 0.075502805 0.040937066 -0.0028009033
000330 08 ad 49 bd fd a2 91 3d 6c d1 67 bd d6 8d 1d bd
       -0.04923728 0.07111166 -0.056596205 -0.038465343
000340 1e 0a f8 3d f8 ff 31 bd 44 27 88 3d 74 a4 13 3e
       0.12111305 -0.043457 0.06648114 0.14418203
000350 c6 cc b9 bb 03 24 64 bd 76 f1 4f bd 70 6a 36 3d
       -0.005670163 -0.055698406 -0.050767384 0.0445351
000360 b0 cf 4c bd da 0d 02 bd 42 73 1c bc 14 50 de bc
       -0.050002754 -0.03175149 -0.009548964 -0.027137794
000370 cf 65 95 bd a9 ba 36 3d ca c8 a8 bc f3 a3 eb bd
       -0.07294809 0.044611607 -0.020603556 -0.1150588
000380 cb a0 68 bd 0d f9 83 bd 29 a2 fd 3d 56 53 98 3d
       -0.05679397 -0.06443987 0.12384445 0.0743777
000390 f8 5b f7 bc d8 5b 99 3b b3 40 d7 bd c8 b1 f4 bd
       -0.030195221 0.004680138 -0.10510387 -0.119479716
0003a0 e8 7a d3 bc e5 8b 61 bd 6f e6 57 bd 03 3d e5 bc
       -0.025815442 -0.055065054 -0.052709993 -0.027983194
0003b0 97 f9 83 3c 89 5f 08 3d 3b 7d 2b 3e 6b d3 46 bd
       0.016110225 0.033294234 0.1674699 -0.048541468
0003c0 20 84 8c bd 65 49 9b bd 6a 73 7e bd 7e 10 a1 bb
       -0.06861138 -0.07582358 -0.062121786 -0.004915296
0003d0 f8 04 4d bd fd f2 47 3d 9e 55 53 bd d5 4f f0 3c
       -0.050053567 0.048815716 -0.051595323 0.029334942
0003e0 7e 33 f3 bc 95 1a be bc eb 3d a7 bd c7 02 a9 3c
       -0.02968764 -0.023206035 -0.08166107 0.020631207
0003f0 38 6c 0a bd d0 2a de 3c 38 c3 11 3d 77 ce 05 bd
       -0.03379461 0.027120024 0.035586566 -0.032667603

sequential/dense_1/MatMul f4 [1, 64]
000000 e8 fd 11 be 67 a8 15 be 97 4e 24 3e ca 44 1b be
       -0.14257014 -0.14615022 0.16045605 -0.1516296
000010 ac 23 f7 bd 0a ab 33 3e 80 b8 43 3e 90 08 c0 be
       -0.12067351 0.17545715 0.1911335 -0.37506533
000020 08 87 93 3e b7 0c 79 be bc bb a3 be e2 2e ef 3d
       0.28813958 -0.24321257 -0.31979167 0.11678864
000030 71 de 84 3e 8e 73 e7 bd af 6b 96 bd 2f 3b 96 be
       0.2595096 -0.11301337 -0.07344758 -0.29342028
000040 7c 1c bb be e6 4e 00 be 90 1f 84 3e 58 31 75 3e
       -0.3654517 -0.12530097 0.2580533 0.23944604
000050 28 17 bb 3e 22 17 12 be 5a 40 74 be 77 24 51 be
       0.36541104 -0.14266637 -0.23852673 -0.20424066
000060 f3 96 30 be 1e 30 b9 be 54 a5 52 be 35 fa 5c be
       -0.17245083 -0.36169523 -0.2057088 -0.21579821
000070 0f 83 ba 3e d1 4f 21 3e 09 15 a7 3e 59 35 c8 bd
       0.36428115 0.15753104 0.32633236 -0.097758
000080 3a 8a b9 be 7a 5e d3 bd a9 64 89 be 97 6b 0c be
       -0.3623827 -0.10320754 -0.2683461 -0.13712917
000090 10 f7 09 be c4 9e d0 3e 1b 87 56 be ff 27 a7 be
       -0.13473153 0.4074613 -0.20949976 -0.32647702
0000a0 46 da c5 3d f1 7f 09 3e 29 16 ab be ca 1f cb 3e
       0.09660773 0.13427712 -0.33415344 0.3967269
0000b0 8e bd a3 3e 1d 9e 46 3e cd 46 27 be 82 75 22 3c
       0.31980556 0.19396253 -0.16335602 0.009915711
0000c0 96 f1 3b 3c aa 03 52 be 17 b4 9e be e4 fd b0 3e
       0.011471173 -0.2050921 -0.30996773 0.34568703
0000d0 99 7f eb bd a4 2f 9e 3b 44 67 26 be ae d4 26 3b
       -0.11498947 0.0048274565 -0.1625033 0.0025456357
0000e0 dc 5e fb bd be ab 05 be 74 ec da 3e a0 40 5f 3e
       -0.12273952 -0.13053796 0.42758524 0.21801996
0000f0 cd e4 e6 3d 9e 33 a0 be d5 fb 21 3e a0 0a 5f 3e
       0.11274109 -0.3128938 0.15818723 0.21781397
